…
    model.add(Conv2D(64, (3, 3), input_shape=img_size))
    model.add(BatchNormalization(axis=1))
    model.add(Activation('relu'))
    model.add(Dropout(0.3))
    model.add(Conv2D(64, (3, 3), padding='same'))
    model.add(BatchNormalization(axis=1))
    model.add(Activation('relu'))
    model.add(MaxPooling2D(pool_size=(2,2), strides=(2,2), padding='same'))
</code></pre>

<p>Which produces the following summary: </p>

<pre><code>Layer (type)                 Output Shape              Param #   
=================================================================
conv2d_1 (Conv2D)            (None, 30, 30, 64)        1792      
_________________________________________________________________
batch_normalization_1 (Batch (None, 30, 30, 64)        120       
_________________________________________________________________
activation_1 (Activation)    (None, 30, 30, 64)        0         
_________________________________________________________________
dropout_1 (Dropout)          (None, 30, 30, 64)        0         
_________________________________________________________________
conv2d_2 (Conv2D)            (None, 30, 30, 64)        36928     
_________________________________________________________________
batch_normalization_2 (Batch (None, 30, 30, 64)        120       
_________________________________________________________________
activation_2 (Activation)    (None, 30, 30, 64)        0         
_________________________________________________________________
max_pooling2d_1 (MaxPooling2 (None, 15, 15, 64)        0         
=================================================================
Total params: 38,960
Trainable params: 38,840
Non-trainable params: 120
</code></pre>

<p>Right now, I would write: </p>

<pre><code>self.features = nn.Sequential(
            nn.Conv2d(3, 64, kernel_size=3,
                      bias=False),
            nn.BatchNorm2d(64),
            nn.ReLU(inplace=True),
            nn.Dropout(0.3),
…
